…
diffusion_pytorch_model.bin: 100%|█████████████████████████████████████████████████| 3.44G/3.44G [03:45<00:00, 15.2MB/s]Fetching 12 files: 100%|████████████████████████████████████████████████████████████████| 12/12 [03:48<00:00, 19.01s/it]
Loading pipeline components...:  57%|██████████████████████████████▎                      | 4/7 [00:06<00:05,  1.73s/it]You have passed a non-standard module StableDiffusionSafetyChecker(████████████████| 3.44G/3.44G [03:45<00:00, 15.3MB/s]
  (vision_model): CLIPVisionModel(
    (vision_model): CLIPVisionTransformer(
      (embeddings): CLIPVisionEmbeddings(
        (patch_embedding): Conv2d(3, 1024, kernel_size=(14, 14), stride=(14, 14), bias=False)
        (position_embedding): Embedding(257, 1024)
      )
      (pre_layrnorm): LayerNorm((1024,), eps=1e-05, elementwise_affine=True)
      (encoder): CLIPEncoder(
        (layers): ModuleList(
          (0-23): 24 x CLIPEncoderLayer(
            (self_attn): CLIPAttention(
              (k_proj): Linear(in_features=1024, out_features=1024, bias=True)
              (v_proj): Linear(in_features=1024, out_features=1024, bias=True)
              (q_proj): Linear(in_features=1024, out_features=1024, bias=True)
              (out_proj): Linear(in_features=1024, out_features=1024, bias=True)
            )
            (layer_norm1): LayerNorm((1024,), eps=1e-05, elementwise_affine=True)
            (mlp): CLIPMLP(
              (activation_fn): QuickGELUActivation()
              (fc1): Linear(in_features=1024, out_features=4096, bias=True)
              (fc2): Linear(in_features=4096, out_features=1024, bias=True)
            )
            (layer_norm2): LayerNorm((1024,), eps=1e-05, elementwise_affine=True)
          )
        )
      )
      (post_layernorm): LayerNorm((1024,), eps=1e-05, elementwise_affine=True)
    )
  )
  (visual_projection): Linear(in_features=1024, out_features=768, bias=False)
). We cannot verify whether it has the correct type
Loading pipeline components...: 100%|█████████████████████████████████████████████████████| 7/7 [00:06<00:00,  1.01it/s]
root@c1cab004f7f6:/src# python test.py --test_text2img
Loading pipeline...
Loading pipeline components...:  43%|██████████████████████▋                              | 3/7 [00:00<00:01,  3.45it/s]/root/.pyenv/versions/3.10.13/lib/python3.10/site-packages/transformers/models/clip/feature_extraction_clip.py:28: FutureWarning: The class CLIPFeatureExtractor is deprecated and will be removed in version 5 of Transformers. Please use CLIPImageProcessor instead.
…
